my_DGCNN_model.dic.pkl (torch, 17014 bytes, 6 tensors)

edge_weight f4 [465]
000000 76 df 7d 3f de 7c 22 3c 8f 60 80 3f 83 77 b4 3b
       0.991691 0.009917466 1.0029467 0.005507411
000010 00 00 00 00 46 39 80 3f 00 00 00 00 00 00 00 00
       0.0 1.0017478 0.0 0.0
000020 21 d5 a8 3b c4 df 7d 3f 01 25 1c 3c 77 01 87 3b
       0.00515236 0.99169564 0.009530307 0.0041200477
000030 00 00 00 00 00 00 00 00 16 96 80 3f f6 a4 19 3c
       0.0 0.0 1.0045803 0.009377709
000040 f5 ad 8c 3b 00 00 00 00 00 00 00 00 f5 3e 89 3b
       0.004293198 0.0 0.0 0.0041884133
000050 13 e2 7d 3f d5 ee 1f 3c 00 00 00 00 7c 72 fc 39
       0.99173087 0.009761532 0.0 0.00048150483
000060 53 cb 00 3c 00 00 00 00 11 a4 43 3b a3 f1 7d 3f
       0.007860976 0.0 0.002985243 0.99196833
000070 00 00 00 00 00 00 00 00 8c 6b 93 3b 00 00 00 00
       0.0 0.0 0.0044989046 0.0
000080 00 00 00 00 00 00 00 00 53 c8 01 3c d3 fe 7d 3f
       0.0 0.0 0.007921296 0.99216956
000090 a6 7c 22 3c a6 cc b6 3b 00 00 00 00 68 67 21 3c
       0.009917414 0.005578595 0.0 0.009851314
0000a0 88 57 68 3b a6 fd ec 3b 3b bd 08 3b 77 e5 19 3c
       0.0035452563 0.0072323857 0.0020864743 0.009393088
0000b0 04 e9 7d 3f d8 d9 1c 3c db 80 a2 3a 00 00 00 00
       0.9918368 0.009573422 0.0012398021 0.0
0000c0 b7 93 ad 3b 00 00 00 00 86 45 61 3b 14 e9 70 3b
       0.00529715 0.0 0.0034373715 0.003676002
0000d0 33 53 56 3b b0 f2 99 3b 84 e8 7d 3f 00 00 00 00
       0.00327034 0.00469812 0.99182916 0.0
0000e0 00 00 00 00 93 88 58 38 2d 3c 79 3b 00 00 00 00
       0.0 5.1625608e-05 0.0038030252 0.0
0000f0 00 00 00 00 00 00 00 00 7d 94 24 3b 00 00 00 00
       0.0 0.0 0.002511292 0.0
000100 00 00 00 00 32 5e 80 3f c9 c1 1f 3c 2a 97 d2 3a
       0.0 1.0028746 0.009750792 0.0016066779
000110 00 00 00 00 db 3d cd 3b 00 00 00 00 1e 43 89 3b
       0.0 0.0062634773 0.0 0.004188909
000120 5f f7 5a 3b 5a 48 b6 3b 10 2c 7c 3b aa b8 82 3b
       0.0033411605 0.005562824 0.0038478412 0.003989299
000130 00 00 00 00 ef f0 7d 3f 54 2b 1f 3c 48 f3 9a 3b
       0.0 0.9919576 0.00971492 0.0047287084
000140 00 00 00 00 0c d5 09 3c 62 f4 87 3b d7 7f b2 3b
       0.0 0.008412611 0.0041490057 0.0054473686
000150 00 00 00 00 00 00 00 00 c9 d8 65 3b d2 7a 92 3a
       0.0 0.0 0.003507184 0.0011175519
000160 00 00 00 00 1c 01 70 3a 78 22 7f 3f 01 15 22 3c
       0.0 0.0009155439 0.9966197 0.009892703
000170 96 b1 a4 3b 00 00 00 00 b8 11 20 3c 61 7a 81 3b
       0.0050260527 0.0 0.0097698495 0.0039513563
000180 26 c2 c9 3b 00 00 00 00 95 f1 93 3b e5 d6 6f 3b
       0.0061571775 0.0 0.004514883 0.0036596593
000190 6c f1 23 3b 00 00 00 00 35 ff 07 3b 76 1a 81 3b
       0.0025015725 0.0 0.002075148 0.003939922
0001a0 cb 0b 7e 3f 00 00 00 00 36 64 cc 3b c3 61 b7 3b
       0.99236745 0.0 0.006237532 0.005596371
0001b0 00 00 00 00 ff 2f 22 3c 00 00 00 00 4f 62 02 3c
       0.0 0.0098991385 0.0 0.007958009
0001c0 00 00 00 00 e1 ea 21 3c 89 a8 cc 3b 2d 73 75 3b
       0.0 0.00988266 0.006245677 0.0037452683
0001d0 47 e0 ec 3b 8a f0 22 3c 48 87 22 3c 59 eb 7d 3f
       0.0072288844 0.009945044 0.009919949 0.9918724
0001e0 2b 6e 21 3c 10 66 86 3b 00 00 00 00 00 00 00 00
       0.009852926 0.0041015223 0.0 0.0
0001f0 02 23 7e 3b d4 07 8d 3b e0 fa bb 3a 00 00 00 00
       0.003877819 0.0043039117 0.0014341734 0.0
000200 11 ba c9 3b 9e 1f 25 3b 00 00 00 00 58 87 44 3b
       0.006156214 0.0025195847 0.0 0.0029987898
000210 f5 16 9c 3b e7 5e ad 3b e0 04 1f 3b 0f e4 7e 3f
       0.004763479 0.0052908543 0.002426438 0.9956674
000220 00 00 00 00 04 e5 f1 3b 00 00 00 00 00 00 00 00
       0.0 0.007382037 0.0 0.0
000230 f9 46 f7 3b 58 ea d7 3b 85 70 03 3c 00 00 00 00
       0.0075463024 0.0065892152 0.008022432 0.0
000240 79 f6 12 3c 08 d9 fa 3b 00 00 00 00 04 97 05 3c
       0.0089698965 0.0076552667 0.0 0.008153681
000250 5e c0 06 3c d8 1f 0c 3c 00 00 00 00 65 3c ec 3b
       0.008224575 0.008552514 0.0 0.007209348
000260 e6 dc 7d 3f 00 00 00 00 00 00 00 00 26 51 82 3b
       0.9916519 0.0 0.0 0.003976959
000270 14 d6 7e 38 00 00 00 00 00 00 00 00 72 8e 19 3c
       6.0757695e-05 0.0 0.0 0.0093723405
000280 5c 4d 8e 39 e0 ae 03 3c 20 e1 8a 3a fb 70 9b 3a
       0.00027141988 0.008037299 0.0010595657 0.0011859232
000290 5f 69 b4 3b 00 00 00 00 00 00 00 00 00 00 00 00
       0.0055057253 0.0 0.0 0.0
0002a0 00 00 00 00 00 00 00 00 f5 ff 80 3f 00 00 00 00
       0.0 0.0 1.0078112 0.0
0002b0 26 01 18 3c 51 62 b0 3b 00 00 00 00 aa 3e 0a 3c
       0.009277618 0.005382814 0.0 0.008437792
0002c0 69 02 23 3c 61 69 22 3c 00 00 00 00 2d 17 20 3c
       0.009949305 0.00991282 0.0 0.009771151
0002d0 d9 bb 20 3c 00 00 00 00 43 d8 22 3c 80 fb 15 3c
       0.009810411 0.0 0.009939256 0.009154201
0002e0 98 c2 1c 3c 00 00 00 00 0a 64 23 3c 00 00 00 00
       0.009567879 0.0 0.009972582 0.0
0002f0 00 00 00 00 ca dd 7d 3f 62 cb d2 3b 7f c9 ad 3b
       0.0 0.9916655 0.0064329365 0.005303561
000300 00 00 00 00 00 00 00 00 01 55 be 3b 79 80 87 3b
       0.0 0.0 0.005808473 0.004135188
000310 9c 19 22 3b 00 00 00 00 2a 19 02 3c 77 5a 41 3b
       0.0024734503 0.0 0.00794057 0.0029503384
000320 00 00 00 00 1c d8 85 3b 76 a5 de 3b 97 a8 ec 3b
       0.0 0.0040846 0.006794627 0.007222246
000330 00 00 00 00 76 13 9d 3b 82 97 b3 3b 00 00 00 00
       0.0 0.0047935797 0.0054807076 0.0
000340 2a d2 e9 3b 8e 0a 81 3f 00 00 00 00 00 00 00 00
       0.007135649 1.0081346 0.0 0.0
000350 00 00 00 00 69 4d 90 3b 00 00 00 00 00 00 00 00
       0.0 0.0044037593 0.0 0.0
000360 00 00 00 00 e2 99 5d 3b 00 00 00 00 00 00 00 00
       0.0 0.0033813645 0.0 0.0
000370 a4 4e cf 3a 00 00 00 00 00 00 00 00 00 00 00 00
       0.0015816283 0.0 0.0 0.0
000380 27 c8 8e 3b 00 00 00 00 00 00 00 00 69 a0 12 3b
       0.004357356 0.0 0.0 0.0022373444
000390 00 00 00 00 00 00 00 00 d1 39 80 3f 5c 62 67 3a
       0.0 0.0 1.0017644 0.00088266074
0003a0 00 00 00 00 00 00 00 00 03 36 98 3b 00 00 00 00
       0.0 0.0 0.0046451106 0.0
0003b0 00 00 00 00 00 00 00 00 0f 2e 7d 3b 00 00 00 00
       0.0 0.0 0.003863219 0.0
0003c0 00 00 00 00 77 15 8a 3a 00 00 00 00 00 00 00 00
       0.0 0.0010534961 0.0 0.0
0003d0 00 00 00 00 df b5 97 3b 00 00 00 00 00 00 00 00
       0.0 0.004629835 0.0 0.0
0003e0 58 1d 48 3b de eb 08 3a 00 00 00 00 45 e3 83 3a
       0.0030535068 0.0005223135 0.0 0.0010062238
0003f0 c9 2a 80 3f 00 00 00 00 00 00 00 00 ed a0 86 3b
       1.0013057 0.0 0.0 0.0041085393

conv1.lin.weight f4 [10, 5]
000000 b1 4f 9e bd 09 c2 33 bf 9f 99 9d 3c 8c 9e 4c be
       -0.07730044 -0.7021795 0.019238291 -0.19982356
000010 d9 88 03 be 11 79 a8 be 86 e9 a3 3d fa 86 10 bf
       -0.12845172 -0.32904866 0.080035254 -0.5645596
000020 86 a5 d3 be 76 a6 c5 be a5 e9 67 be 97 67 50 3f
       -0.41337222 -0.38603562 -0.22647722 0.81408066
000030 be 9c 15 be 55 5a 81 3e 30 ee 7d be ef 21 91 3e
       -0.14610574 0.2526423 -0.24797893 0.28346202
000040 34 78 24 3e b4 79 59 be 6b f0 d4 be 6e d4 a1 be
       0.16061479 -0.21237832 -0.41589674 -0.31607383
000050 c7 2e be 3e d5 70 ac be 18 3a 8c be 8c f9 8f bd
       0.37145063 -0.33679834 -0.27388072 -0.07030019
000060 4b 0e 3f be db c2 cd 3d 78 49 71 be b4 67 f4 be
       -0.18657796 0.10046931 -0.23563182 -0.4773537
000070 0b 66 0c 3f 73 b1 86 ba db 26 7d 3e 95 7e 35 3f
       0.54843205 -0.0010276273 0.24721853 0.70896274
000080 74 4e 7d 3e e5 89 48 be 3d 17 be be be d8 c3 be
       0.24736959 -0.19583853 -0.37127104 -0.382513
000090 3d 9d 69 3c 33 b7 79 bf dd d5 23 bf d7 a1 21 3d
       0.01425868 -0.97545165 -0.63998204 0.039460983
0000a0 77 f5 11 3c 56 88 fe 3e 6c b7 3a be 6e a8 81 3e
       0.008908621 0.4971339 -0.18234032 0.25323814
0000b0 78 c1 ce 3d de 09 64 bc 83 a6 91 3e 2d 19 f3 3d
       0.10095495 -0.013918368 0.2844735 0.11870036
0000c0 1e fb 7f be 6e 88 5d 3e
       -0.24998137 0.21634075

conv1.lin.bias f4 [10]
000000 25 80 dc be 37 1e d1 3e 68 4c 5e 3c 08 f4 c2 3e
       -0.43066517 0.40843365 0.013568021 0.38076806
000010 ab 71 84 bd 5d 48 93 3e 49 d5 08 3e f3 53 7b be
       -0.06466993 0.28766146 0.13362612 -0.24543743
000020 ee 15 c3 be f6 7a 8c 3e
       -0.3810267 0.27437562

conv2.weight f4 [1, 30, 1]
000000 38 7a 67 bd 82 be d7 3d 12 fd 13 bb 64 8e 13 be
       -0.05651304 0.10534383 -0.0022581262 -0.14409786
000010 fc 17 2a 3e 3d 9a 73 3d e7 31 45 3d 63 bf cc bd
       0.16610712 0.059473265 0.048143294 -0.099974416
000020 be 29 1b 3e cd 86 45 3d fd a5 8f bd 03 3e 6f 3d
       0.15152642 0.04822426 -0.070140816 0.05840875
000030 8f bf 28 3e 16 3c 20 3e cc 1e 18 be cd ca a1 3d
       0.16479324 0.15647921 -0.14855498 0.07900009
000040 20 ff cc 3c 88 1e a0 bd 43 5e 48 bd 4d 0c 80 3d
       0.025023997 -0.078183234 -0.04891802 0.06252346
000050 78 a7 6e bd e0 7e 0a bd f3 2f 16 be 1d 92 fd bc
       -0.05826518 -0.033812404 -0.14666729 -0.030953461
000060 01 24 c0 bc 5a 2b 34 be 70 90 b9 3d eb 46 f6 3d
       -0.023454668 -0.17594662 0.090607524 0.12025245
000070 39 f7 41 3e c5 50 f0 bd
       0.18941964 -0.117341556

fc.weight f4 [2, 10]
000000 86 b7 e0 3c 42 b7 9f be 28 5d 5c 3e 62 1e 79 be
       0.02743126 -0.31194502 0.21519911 -0.24327996
000010 a8 65 02 3e 74 b8 1e be 7d 76 95 3e d7 12 b8 3c
       0.12734091 -0.15500051 0.29191962 0.022469921
000020 dd 79 2c be d3 ab b7 bd e1 a2 93 3e 6e 66 23 3e
       -0.16843362 -0.0896832 0.28835204 0.15957043
000030 b1 9c 7e be 64 ff f4 bd 41 11 5b bd 29 29 20 be
       -0.2486446 -0.119627744 -0.05348325 -0.15640701
000040 02 7a a1 bd 9e 65 a9 3d 93 7d 99 3e c2 64 25 be
       -0.07884599 0.08271335 0.29978618 -0.16151717

fc.bias f4 [2]
000000 e1 be 2e 3e b3 f0 03 be
       0.17065002 -0.12884788
