my_DGCNN_model.dic.pkl (torch, 17014 bytes, 6 tensors)

edge_weight f4 [465]
1.0079386 0.0 0.99173635 0.0042224745 0.0057413583 1.0083008 0.0 0.0
0.0041967137 0.9917921 0.0 0.0 0.0029579792 0.0 0.99175006 0.004459663
0.005614412 0.00454741 0.0054337005 0.005012852 1.0083064 0.0017144044 0.0 0.0029306712
0.0 0.0 0.0043436117 0.99186254 0.0 0.0 0.0 0.0
0.0 0.008103118 0.0 0.99166113 0.004140022 0.0 0.0044242227 0.0
0.0 0.0048867464 2.882364e-05 0.0 1.0081873 0.008559256 0.0 0.00641651
0.0 0.0 0.0062388517 0.0 0.0 0.004617439 0.99165136 0.0
0.0 0.0 0.0 0.0 0.006655408 0.0 0.0 0.0
0.0 0.9916993 0.0 0.0 0.008504304 0.0 0.0 0.00621985
0.0 0.0 0.0 0.0 0.0 0.9916666 0.0046675466 0.0
0.0046825763 0.0 0.0 0.0051584765 0.0 0.0 0.0038827239 0.0
0.0 0.0 0.9916817 0.004994725 0.0 0.0047217384 0.0 0.0
0.0052028517 0.0 0.0 0.0033050405 0.0 0.0 0.0 0.00017922174
0.9916885 0.0041837683 0.0 0.0041864584 0.0 0.0 0.004427066 0.0005877181
0.0 0.0040701996 0.009300292 0.0 0.0 0.004671485 0.0051112445 0.99156535
0.0038595987 0.0 0.004224137 0.0 0.0 0.0046485444 0.0011502425 0.0
0.0042681866 0.0043637455 0.0 0.0011268179 0.0039176005 0.0035390242 0.0037738606 1.0081043
0.0048624068 0.0 0.004918348 0.0 0.0 0.0053844834 0.0 0.0
0.0041647083 0.0 0.0 0.0 0.002821461 0.00015054565 0.0048540547 0.0042278664
0.9916823 0.0 0.0 0.0 0.0 0.0 0.009848182 0.0
0.0 0.0 0.0 0.0 0.0 0.0 0.0 0.0
0.0 0.0 0.99166477 0.0045423205 0.0 0.0046258834 0.0 0.0
0.0050971257 0.0 0.0 0.003981788 0.0 0.0 0.0 0.00334443
9.266694e-05 0.004524662 0.0039957385 0.0035206026 0.0 0.99169683 0.0 0.0
0.0 0.0 0.0 0.0065778857 0.0 0.0 0.0 0.0
0.0 0.0 0.0 0.0 0.0 6.7165256e-06 0.0 0.0
0.0 0.9917365 0.004170276 0.0 0.00417127 0.0 0.0 0.0045827245
0.0 0.0 0.003651736 0.0 0.0 0.0 0.0039058113 0.0039686216
0.004172238 0.0035102526 0.004031696 0.0 0.0038545679 0.0 0.9917091 0.0
0.0 0.0 0.0 0.0 0.005872508 0.0 0.0 0.0
0.0 0.0 0.0 0.0 0.0 0.0 0.0 0.0
0.0 0.0 0.0 0.0 0.9918311 0.00405139 0.0028466322 0.0043028668
00000000: 2204 813f 0000 0000 6fe2 7d3f af5c 8a3b
00000010: 0122 bc3b 0010 813f 0000 0000 0000 0000
00000020: 9684 893b 16e6 7d3f 0000 0000 0000 0000
00000030: a8da 413b 0000 0000 55e3 7d3f 5d22 923b
00000040: 1af9 b73b 7102 953b 2f0d b23b da42 a43b
00000050: 2f10 813f deb5 e03a 0000 0000 8110 403b
00000060: 0000 0000 0000 0000 db54 8e3b b4ea 7d3f
00000070: 0000 0000 0000 0000 0000 0000 0000 0000
00000080: 0000 0000 f1c2 043c 0000 0000 81dd 7d3f
00000090: 06a9 873b 0000 0000 12f9 903b 0000 0000
000000a0: 0000 0000 0021 a03b 4cca f137 0000 0000
000000b0: 480c 813f 1f3c 0c3c 0000 0000 9641 d23b
000000c0: 0000 0000 0000 0000 486f cc3b 0000 0000
000000d0: 0000 0000 e34d 973b dddc 7d3f 0000 0000
000000e0: 0000 0000 0000 0000 0000 0000 0000 0000
000000f0: 9c15 da3b 0000 0000 0000 0000 0000 0000
00000100: 0000 0000 01e0 7d3f 0000 0000 0000 0000
00000110: a355 0b3c 0000 0000 0000 0000 e2cf cb3b
00000120: 0000 0000 0000 0000 0000 0000 0000 0000
00000130: 0000 0000 dddd 7d3f 38f2 983b 0000 0000
00000140: 4c70 993b 0000 0000 0000 0000 7008 a93b
00000150: 0000 0000 0000 0000 4c75 7e3b 0000 0000
00000160: 0000 0000 0000 0000 dade 7d3f caaa a33b
00000170: 0000 0000 d0b8 9a3b 0000 0000 0000 0000
00000180: af7c aa3b 0000 0000 0000 0000 6199 583b
00000190: 0000 0000 0000 0000 0000 0000 78ed 3b39
000001a0: 4cdf 7d3f fe17 893b 0000 0000 8f2e 893b
000001b0: 0000 0000 0000 0000 ec10 913b 1811 1a3a
000001c0: 0000 0000 4f5f 853b 4060 183c 0000 0000
000001d0: 0000 0000 4213 993b 3a7c a73b 3ad7 7d3f
000001e0: 52f1 7c3b 0000 0000 a16a 8a3b 0000 0000
000001f0: 0000 0000 d152 983b bcc3 963a 0000 0000
00000200: 25dc 8b3b c0fd 8e3b 0000 0000 bcb1 933a
00000210: 375f 803b f9ee 673b e052 773b 9009 813f
00000220: d354 9f3b 0000 0000 182a a13b 0000 0000
00000230: 0000 0000 5270 b03b 0000 0000 0000 0000
00000240: 1b78 883b 0000 0000 0000 0000 0000 0000
00000250: 43e8 383b cadb 1d39 c30e 9f3b ea89 8a3b
00000260: e4de 7d3f 0000 0000 0000 0000 0000 0000
00000270: 0000 0000 0000 0000 455a 213c 0000 0000
00000280: 0000 0000 0000 0000 0000 0000 0000 0000
00000290: 0000 0000 0000 0000 0000 0000 0000 0000
000002a0: 0000 0000 0000 0000 bedd 7d3f bfd7 943b
000002b0: 0000 0000 b994 973b 0000 0000 0000 0000
000002c0: ca05 a73b 0000 0000 0000 0000 a979 823b
000002d0: 0000 0000 0000 0000 0000 0000 392e 5b3b
000002e0: 2f56 c238 9e43 943b afee 823b e9b9 663b
000002f0: 0000 0000 d8df 7d3f 0000 0000 0000 0000
00000300: 0000 0000 0000 0000 0000 0000 4e8b d73b
00000310: 0000 0000 0000 0000 0000 0000 0000 0000
00000320: 0000 0000 0000 0000 0000 0000 0000 0000
00000330: 0000 0000 845e e136 0000 0000 0000 0000
00000340: 0000 0000 71e2 7d3f d0a6 883b 0000 0000
00000350: 26af 883b 0000 0000 0000 0000 ae2a 963b
00000360: 0000 0000 0000 0000 f751 6f3b 0000 0000
00000370: 0000 0000 0000 0000 a4f8 7f3b 360b 823b
00000380: 45b7 883b 440c 663b 511c 843b 0000 0000
00000390: eb9c 7c3b 0000 0000 a6e0 7d3f 0000 0000
000003a0: 0000 0000 0000 0000 0000 0000 0000 0000
000003b0: 2b6e c03b 0000 0000 0000 0000 0000 0000
000003c0: 0000 0000 0000 0000 0000 0000 0000 0000
000003d0: 0000 0000 0000 0000 0000 0000 0000 0000
000003e0: 0000 0000 0000 0000 0000 0000 0000 0000
000003f0: a5e8 7d3f 86c1 843b 908e 3a3b 10ff 8c3b

conv1.lin.weight f4 [10, 5]
0.3970574 -0.23959127 -0.4489239 0.49558225 0.23925337 -0.07856206 -0.12861057 -0.15186425
-0.085041724 -0.13724011 -0.20958434 -0.26173675 -0.42789236 -0.2930082 0.26950285 0.34074637
-0.3540909 0.16958322 -0.43447086 -0.050463617 -0.010742925 -0.41154456 -0.06266043 0.1378299
0.082495905 -0.5914028 0.5776136 0.30558878 0.23863809 -0.106243044 0.2334146 -0.45789215
0.51477635 -0.20434438 -0.49961326 0.5833589 0.41135737 0.11300979 -0.23111476 0.49757868
0.4769962 0.18717436 0.174683 0.027135966 -0.18566291 0.14010625 -0.27189323 0.14157157
-0.13423963 0.032392576
00000000: 1c4b cb3e 6a57 75be 5ad9 e5be f5bc fd3e
00000010: d6fe 743e 25e5 a0bd 7db2 03be 4d82 1bbe
00000020: 5b2a aebd ac88 0cbe 479d 56be 5c02 86be
00000030: b514 dbbe 2c05 96be 47fc 893e 4f76 ae3e
00000040: 674b b5be 39a7 2d3e f772 debe f0b2 4ebd
00000050: 1803 30bc f8b5 d2be 1d54 80bd 4823 0d3e
00000060: 9df3 a83d 2d66 17bf 7cde 133f 2276 9c3e
00000070: 8b5d 743e f495 d9bd 3d04 6f3e d770 eabe
00000080: 62c8 033f a73f 51be 4fcd ffbe 0257 153f
00000090: 6f9d d23e ad71 e73d 59a9 6cbe a2c2 fe3e
000000a0: d938 f43e a3aa 3f3e 1ae0 323e 3f4c de3c
000000b0: 6b1e 3ebe 0378 0f3e 9735 8bbe 23f8 103e
000000c0: 1d76 09be 14ae 043d

conv1.lin.bias f4 [10]
0.1336053 -0.05865132 -0.13400118 0.33683378 -0.38126135 -0.43755347 -0.14716472 -0.29313645
0.44924402 0.3775443
00000000: d4cf 083e 5e3c 70bd 9b37 09be 7a75 ac3e
00000010: b034 c3be 0207 e0be 59b2 16be fb15 96be
00000020: 5003 e63e 7d4d c13e

conv2.weight f4 [1, 30, 1]
-0.065680414 0.07283753 -0.10238243 0.07528507 0.06460981 -0.18795174 0.035790715 0.1263253
-0.07352341 0.033751152 0.09916276 0.073747426 -0.016069993 0.005967769 -0.060078677 -0.13413855
-0.017652696 0.17005941 -0.02489989 0.10518765 -0.029891143 0.1007625 -0.14757906 -0.08558828
-0.103401676 0.094039135 -0.11534265 0.13274153 0.13268419 0.12001911
00000000: 7483 86bd d82b 953d e1ad d1bd 0f2f 9a3d
00000010: 2652 843d 6c76 40be 4999 123d 6b5b 013e
00000020: 7193 96bd a63e 0a3d d815 cb3d e408 973d
00000030: 38a5 83bc 468d c33b 0f15 76bd 9e5b 09be
00000040: 639c 90bc 0e24 2e3e dbfa cbbc 9f6c d73d
00000050: 45de f4bc 925c ce3d f71e 17be e848 afbd
00000060: 42c4 d3bd 9797 c03d c438 ecbd 65ed 073e
00000070: 5dde 073e 94cc f53d

fc.weight f4 [2, 10]
0.275053 -0.30532685 -0.31283662 0.11926246 0.10317838 -0.038670305 -0.2822941 0.013100837
0.3058609 0.13155581 0.19590865 -0.22053441 0.020884298 0.06605134 -0.09960543 0.15296842
-0.28113073 0.2293445 0.18999685 0.18802482
00000000: bfd3 8c3e cd53 9cbe 1f2c a0be e03f f43d
00000010: 304f d33d c164 1ebd da88 90be e5a4 563c
00000020: cd99 9c3e 91b6 063e 479c 483e c6d3 61be
00000030: 8c15 ab3c ed45 873d effd cbbd c1a3 1c3e
00000040: 5ef0 8fbe 49d9 6a3e 898e 423e 9489 403e

fc.bias f4 [2]
0.23767155 0.20414068
00000000: 2c60 733e 410a 513e
